CUDA is available. Configured TensorFlow to use the GPU.
Model: "sequential_22"
_________________________________________________________________
 Layer (type)                Output Shape              Param #   
=================================================================
 conv2d_1 (Conv2D)           (None, 48, 48, 512)       5120      
                                                                 
 batchnorm_1 (BatchNormaliz  (None, 48, 48, 512)       2048      
 ation)                                                          
                                                                 
 conv2d_2 (Conv2D)           (None, 48, 48, 256)       1179904   
                                                                 
 batchnorm_2 (BatchNormaliz  (None, 48, 48, 256)       1024      
 ation)                                                          
                                                                 
 maxpool2d_1 (MaxPooling2D)  (None, 24, 24, 256)       0         
                                                                 
 dropout_1 (Dropout)         (None, 24, 24, 256)       0         
                                                                 
 conv2d_3 (Conv2D)           (None, 24, 24, 128)       295040    
                                                                 
 batchnorm_3 (BatchNormaliz  (None, 24, 24, 128)       512       
 ation)                                                          
                                                                 
 conv2d_4 (Conv2D)           (None, 24, 24, 128)       147584    
                                                                 
 batchnorm_4 (BatchNormaliz  (None, 24, 24, 128)       512       
 ation)                                                          
                                                                 
 maxpool2d_2 (MaxPooling2D)  (None, 12, 12, 128)       0         
                                                                 
 dropout_2 (Dropout)         (None, 12, 12, 128)       0         
                                                                 
 conv2d_5 (Conv2D)           (None, 12, 12, 256)       295168    
                                                                 
 batchnorm_5 (BatchNormaliz  (None, 12, 12, 256)       1024      
 ation)                                                          
                                                                 
 conv2d_6 (Conv2D)           (None, 12, 12, 512)       1180160   
                                                                 
 batchnorm_6 (BatchNormaliz  (None, 12, 12, 512)       2048      
 ation)                                                          
                                                                 
 maxpool2d_3 (MaxPooling2D)  (None, 6, 6, 512)         0         
                                                                 
 dropout_3 (Dropout)         (None, 6, 6, 512)         0         
                                                                 
 flatten (Flatten)           (None, 18432)             0         
                                                                 
 dense_1 (Dense)             (None, 256)               4718848   
                                                                 
 batchnorm_7 (BatchNormaliz  (None, 256)               1024      
 ation)                                                          
                                                                 
 dropout_4 (Dropout)         (None, 256)               0         
                                                                 
 out_layer (Dense)           (None, 7)                 1799      
                                                                 
=================================================================
Total params: 7831815 (29.88 MB)
Trainable params: 7827719 (29.86 MB)
Non-trainable params: 4096 (16.00 KB)
_________________________________________________________________
Epoch 1/120

Epoch 1: val_accuracy improved from -inf to 0.40390, saving model to drive/MyDrive/best_model.h5
…
